titanic_data_analysis/titanic_model.pt (torch, 3844 bytes, 6 tensors)

linear1.weight f4 [13, 13]
00000000: 986d cebb d3d1 d13f c7a9 be40 21d2 5abf
00000010: ce9f 2bc0 d698 8fc1 be05 6541 f41a 79bf
00000020: 57b1 33c1 54b9 9f40 a6d5 a9c0 8970 c6c0
00000030: b7c5 1241 8117 33bf 164e 0abf 6688 ce3c
00000040: 05da b0be 4bb1 21bf b115 18bf c019 043f
00000050: e80d 0ebf 8eb4 eabe 0761 66bf 2a92 afbe
00000060: e75c fdbe a765 5bbf 81d4 fbbe 7a4d 983d
00000070: 3789 2bbe 950a 1240 6de8 4a3d 695f 0f41
00000080: 563e ecc0 a6b8 6840 d3d3 0241 3778 b0c0
00000090: 1574 f3bf c164 ac40 20e6 d8bf 7ca7 34bf
000000a0: d881 e93e fc7c 45c0 c9b7 1240 d2a4 88bf
000000b0: 4e2f b040 f4d9 6ac0 8916 7a3f fa83 ed40
000000c0: 48de a4c0 f283 67c0 2daf ab3e f11a 3d40
000000d0: c59c 223f b168 8cbd b737 8dc0 c70a fc3d
000000e0: 81e0 c9bd aa82 c640 8db1 b6c0 5f33 943f
000000f0: c3ed 7b40 5b05 3cc0 5a3f 11bf e6e0 f53f
00000100: 9a24 b5be b3e3 28bf f7bd c3be 1694 3bbf
00000110: 0d28 f73d cd6f 48bf f826 363f 699b f9be
00000120: e6df b5be 03de ac3e ac24 62bf 2af8 56bf
00000130: 6482 f03e ff51 01bf f305 053f 1ed4 3b3f
00000140: 18b2 183e 627d 9c3e e3bf 0f3f 3e16 c43e
00000150: 4eb5 b5be 6bf5 e03e 582a 233f 5668 a93e
00000160: 9e28 c83e c721 163f df2c e1be 7f43 53bf
00000170: 4bfe 02bd 4dcc a8be 2403 25bf 0d32 32bf
00000180: 98a9 1c3f deb7 32bf b3d7 21bf c593 a13e
00000190: 9b70 40bf 47e7 28be 807b b9be 0dd0 d5be
000001a0: 0563 1e3f c9ee 2b3f 92ad 00bd 136e 37bd
000001b0: 42b0 d33e eb20 9a3d 9a4d 413f ae50 b83e
000001c0: 6294 d53e bfef 0f3f 909f 343f c2f8 0f3f
000001d0: 1944 403f 9094 01bf d333 6ebf 009a 85bf
000001e0: a0da 0f3f 90ac c3be db32 3e3f d37c 76bf
000001f0: 7a34 b63e 1273 26bf 725a 4abf 0d2d 33be
00000200: eff5 463f 9747 2ebf a3de 11bf ff2f 37bf
00000210: 5e1f da3d 2fc4 0abf 5b0b 84bf 29bd 88bf
00000220: fed0 153f fc96 a5bf fefd 40bf a86c 2c3e
00000230: 397f 4bbf a471 9dbf 9df2 4b3f 2468 293f
00000240: 80bf b63d 79e0 09bf 0c20 e73e 4a03 963f
00000250: 8c88 c03f 20b1 a5bf 4ad3 773f 20e8 763f
00000260: 00b5 fdbe 4850 573f aefa c83f c62b 37bf
00000270: 46e6 0b3e 4120 40bf 8c52 d0c0 2960 7640
00000280: 2c10 4540 df1b fb40 d024 fac0 7954 f23f
00000290: 430a 6840 8ba8 59c0 43a3 8740 3dcf 9940
000002a0: 4a18 e0c0
-0.0062996857 1.6392158 5.958225 -0.8547688 -2.6816287 -17.949627 14.313902 -0.9730675
-11.230796 4.991373 -5.30733 -6.201237 9.17327 -0.6995774 -0.540254 0.025211524
-0.34541336 -0.6316115 -0.594081 0.5160179 -0.5548997 -0.45840877 -0.899918 -0.34291202
-0.4948494 -0.85701984 -0.49185565 0.074366525 -0.16751562 2.2818959 0.049538065 8.9607935
-7.3826094 3.63627 8.176715 -5.5146747 -1.90198 5.387299 -1.6945229 -0.7056806
0.45606875 -3.0857534 2.2924674 -1.0675299 5.5057745 -3.6695528 0.97690636 7.4223604
-5.152134 -3.6174283 0.33532086 2.9547694 0.6352046 -0.06855906 -4.413051 0.12306743
-0.09857274 6.20345 -5.7091737 1.1578177 3.9363868 -2.9378269 -0.5673729 1.9209259
-0.35379487 -0.6597244 -0.3823087 -0.73272836 0.12068186 -0.78295594 0.7115321 -0.4875138
-0.35522383 0.33763131 -0.88337207 -0.8397242 0.4697448 -0.5051574 0.519622 0.7337054
0.14911687 0.3056441 0.5615217 0.3829822 -0.35489887 0.4393724 0.63736486 0.33087415
0.39093488 0.5864529 -0.43979546 -0.82524866 -0.031980794 -0.3296837 -0.6445792 -0.6960762
0.6119628 -0.6981181 -0.63219756 0.31558052 -0.7517182 -0.16494475 -0.36227036 -0.41760293
0.6186984 0.6716123 -0.03141553 -0.04478271 0.41345412 0.0752581 0.75509036 0.35999054
0.4171477 0.562252 0.70555973 0.5623895 0.7510391 -0.50617313 -0.9304783 -1.0437622
0.5619297 -0.38217592 0.7429635 -0.96284217 0.3558691 -0.65019333 -0.7904426 -0.17497654
0.77719015 -0.6807799 -0.5698034 -0.7155761 0.10650514 -0.542056 -1.0315965 -1.0682727
0.5852202 -1.2936702 -0.7538756 0.16838324 -0.79491 -1.2300305 0.79667073 0.6617453
0.089232445 -0.53858143 0.45141637 1.1719754 1.5041671 -1.2944679 0.96806777 0.96447945
-0.49552155 0.84106874 1.5701501 -0.7155117 0.13662061 -0.75049216 -6.5100765 3.8496192
3.079112 7.847152 -7.8169937 1.8932029 3.6256263 -3.400912 4.2386794 4.8065476
-7.002965

linear1.bias f4 [13]
00000000: b69a 553e dda7 50bf 9996 993e e2bd 4740
00000010: 945c 5e3e b15e 46bf e7e9 cf3e d418 2fbf
00000020: edb9 7d3f e388 05bf 0836 8abf 11c2 613f
00000030: 225a 8ebf
0.20859799 -0.8150614 0.2999771 3.1209645 0.21715003 -0.7748824 0.4060814 -0.6839726
0.99111825 -0.52162 -1.0797739 0.88186747 -1.1121256

linear2.weight f4 [8, 13]
00000000: 5cb6 8440 7ab9 fd3e 40bd abc0 d65f 4bc0
00000010: 606a 23c0 c2d4 083f 20ff 113f 64d3 d0be
00000020: 14b3 353c bb42 c6be 0324 f03e 29db 8e3e
00000030: b947 e2bf 19fa 303d ad04 1fbf c94e a6bf
00000040: 42ad 81bf 08be 20bf 3dbe 6bbf a607 acbf
00000050: 1fe6 fbbe 4c2c 82bf 6353 49bf eda7 99bf
00000060: dbe4 68bf 4b76 d7bf 7702 7040 9a1d 2e3f
00000070: bbe5 9ec0 4853 4cc0 16c3 15c0 4fa8 c93e
00000080: f09a e83e 2f98 1bbe 01c0 6d3e 887c e6be
00000090: 412e f33d 61e2 053e 23ee 0fc0 fa60 ca3d
000000a0: 82a6 39bf 92f5 8d3d 85c3 a8bf 8c10 1dc0
000000b0: 6d26 c6be ec6b 31bf 538d 4f3e 31a5 b9bf
000000c0: d142 7cbf 7674 b6be 4215 4abf 741c 06bf
000000d0: 7514 7f40 41ca 223f 4879 abc0 0105 50c0
000000e0: c135 36c0 6b5a 753e 95a5 273f 27a0 12bf
000000f0: 7a58 a43e 99b0 23bf 31f1 e8be c1ba b93e
00000100: 30a9 06c0 b961 313d f1cf 2ebf 54a8 183c
00000110: bf83 90bf 8ce2 06c0 5d55 26bf b77d 7bbf
00000120: 2dd1 20bf 8949 c1bf e343 1dbf 91e6 50bf
00000130: 36e5 f4be ec63 55bf 8aeb 9040 f930 c23e
00000140: 292c b6c0 777f 58c0 04e4 31c0 0333 563f
00000150: f7c6 2a3f 3074 dcbe f51f 4c3e f176 0fbf
00000160: aefb a53e dc52 db3a bf2e acbf 93be 053f
00000170: 0677 aebe 82f9 dfbf 0996 ebbf a783 acbf
00000180: e9b6 e8be 389f 88bf d391 4ebf 6684 77bf
00000190: c155 4bbf bab9 60bf 54fd 61be 0d30 acbf
4.1472607 0.4955557 -5.366852 -3.1777244 -2.5533676 0.5344964 0.57029915 -0.40786278
0.011090059 -0.38722786 0.46902475 0.2790158 -1.7678138 0.04320726 -0.6211651 -1.2992793
-1.0130999 -0.62789965 -0.92087156 -1.3439834 -0.49199006 -1.0169768 -0.78642863 -1.2004372
-0.90974206 -1.6832975 3.7501504 0.6801392 -4.9655433 -3.192583 -2.340032 0.39386222
0.45430708 -0.15194772 0.23217775 -0.45016885 0.118740566 0.13074638 -2.2489097 0.09881778
-0.72519696 0.069316044 -1.3184668 -2.454135 -0.38701192 -0.693053 0.20268755 -1.4503537
-0.98539454 -0.35635728 -0.78938687 -0.52387166 3.9856236 0.63589865 -5.358555 -3.2503054
-2.8470309 0.23960273 0.65487033 -0.57275623 0.32098752 -0.6394134 -0.45496514 0.36275294
-2.1040764 0.043306086 -0.68286043 0.009317476 -1.1290206 -2.1075773 -0.64974004 -0.982387
-0.62819177 -1.5100566 -0.6143171 -0.81601816 -0.47831124 -0.83355594 4.5287523 0.37927988
-5.6928906 -3.3827798 -2.779542 0.8367159 0.66709846 -0.43057394 0.19934066 -0.56040865
0.3241858 0.0016733068 -1.3451766 0.5224392 -0.34075183 -1.7498019 -1.8405162 -1.3477677
-0.4545205 -1.067359 -0.8069126 -0.966864 -0.79427725 -0.87783396 -0.22069293 -1.3452164

linear2.bias f4 [8]
00000000: fdb2 803e 0232 80bf 7906 1c3f e45f 55bf
00000010: ee94 c43e 0ec5 7ebf 037c a03e 512a 93bf
0.25136557 -1.0015261 0.60947376 -0.8334944 0.38394874 -0.9951943 0.31344613 -1.1497289

linear3.weight f4 [2, 8]
00000000: c88c d43f 5435 473a 3f5f 793f 8b12 043e
00000010: 0cb3 a33f 6df5 c13d 7032 db3f fef8 a23e
00000020: 0450 d3bf 3a73 babe f09b bebf 9640 0f3e
00000030: 5ee1 c4bf e858 ecbd ea71 e9bf c1a8 babe
1.6605463 0.0007599194 0.9741096 0.12897699 1.2789016 0.094706394 1.7124767 0.3183059
-1.6508794 -0.36416036 -1.4891338 0.13989481 -1.5381277 -0.11540395 -1.8237889 -0.36456874

linear3.bias f4 [2]
00000000: 04b2 17bf 7ce3 8a3f
-0.59256005 1.0850673
