titanic_data_analysis/titanic_model.pt (torch, 3844 bytes, 6 tensors)

linear1.weight f4 [13, 13]
00000000: 6ed7 2ebf d26b 2fbf 11ae b6be 1764 79be
00000010: c3b1 32bf 0ff9 aa3c 9da5 e1bd 7874 81be
00000020: b892 38be b963 d0be 7b68 913d 5da3 863e
00000030: 41f8 2cbe 4e84 9bbe 7607 4fbf 83dd 30bf
00000040: d144 10bf f95a 2fbf 2260 af3e 5c6b 44bf
00000050: 0837 5dbf 5523 5d3f ad06 21bf 8521 09bf
00000060: 682a 323e 6ccc 07bf 3175 16bf c61b 65bf
00000070: 0c47 e63e 3907 3dbf ae38 e7be 3fda e1be
00000080: b097 c23e 9984 c8be 69ff 34bd 6cd7 ffbe
00000090: fc99 cfbe 78de 97be c3bd c53e 08e8 053f
000000a0: 2762 3c3f 878d 313e 526e 0c3f 4f57 843f
000000b0: 6469 833f e748 55bf fde7 b43f b496 2f3f
000000c0: d45f 643e 482b 6b3f 539c 8b3f 47bc 2dbe
000000d0: 7b10 093f 70ea bb3f 23f0 b040 eb8c 47c0
000000e0: b298 b3bf ac10 fec0 5d35 cf40 4439 f13e
000000f0: c4c7 93c0 45b1 3140 8956 21c0 1899 45c0
00000100: 48c0 4940 2b68 1cbf b06f 2bbf 00e8 edbe
00000110: da4e 49bf a264 4dbf cf60 5f3e 27ae 20bf
00000120: 7358 f9be 0c56 0e3f e31b d0be 7445 51bf
00000130: 291d 203f 66d8 5dbf 37b5 2e3f 103f 56c0
00000140: 7775 30c1 78be c9c0 8e56 673f 5a29 5441
00000150: bde9 7ac1 487c c33e 7f6a 3a41 1111 09c1
00000160: 2849 6e40 01e4 16c0 effd cec0 6d8d a1bf
00000170: 5519 14c0 cfd2 88c0 f891 0abf b2a7 843f
00000180: ad25 6240 362f 83c0 d899 df3f 8950 b83f
00000190: 338d 92c0 5d7c 5d3f 1544 b53f 1024 98c0
000001a0: ea71 163f 5173 983f df3b 1cc0 063d 74bf
000001b0: 2f24 29be 8fd0 8f3f 3599 adbf b2ef 1e3f
000001c0: 73d1 42bf 6e8a 8fbe 1cef 5b3f 462d 303f
000001d0: c2f7 03bf f1d2 5cbf 4d5b 01bf 4635 abc0
000001e0: 713e 343f 4769 48bf 51a5 2141 639e f3c0
000001f0: dbcb 153f 627f 1e41 7fb1 cdc0 1ddf d6bd
00000200: 7eed e03d 7c55 83bf 2fd5 13bf 4dbd 77bf
00000210: b7ee 7bbf b45f 2dbf d690 ebbe 0f8c bebe
00000220: f00d 013e 6fed 22bf 2e18 143f 6396 3abf
00000230: 1f5d cbbe 1ad4 41bf 5dcf 6ebe a637 0fbf
00000240: da50 25bf ac57 1b3f 6fad 02bf 9868 04bf
00000250: ef4a dabe 22cb 423f c3f6 eebe 5cd3 12bf
00000260: 2839 f4be d9f2 33bf 0ebd 51bf bfd7 473f
00000270: b15d 083f cb0f f83f 55ce 2b40 6969 93c0
00000280: 83c7 aac0 b6fc b3c0 1d66 ae40 ae28 5040
00000290: 77a3 7740 402a 8fbe 5da8 a8c0 6cae c83f
000002a0: b8eb b040
-0.6829747 -0.68523896 -0.35679677 -0.24354587 -0.6980249 0.020870714 -0.11017916 -0.2528417
-0.18024719 -0.40701082 0.07100006 0.2629651 -0.16891576 -0.30374378 -0.8087076 -0.69088
-0.56355006 -0.6849819 0.3425303 -0.7672632 -0.86412096 0.8638204 -0.6290081 -0.5356677
0.17398989 -0.530463 -0.5877257 -0.89495504 0.4497608 -0.73839146 -0.4516043 -0.4411182
0.38006353 -0.39163664 -0.04418889 -0.4996904 -0.40547168 -0.29661918 0.3862134 0.52307177
0.7358727 0.17339145 0.54855835 1.0339144 1.0266538 -0.83314365 1.4133297 0.6858933
0.2230218 0.91862917 1.0907081 -0.16966353 0.5354077 1.468092 5.5293136 -3.117976
-1.4030974 -7.939535 6.475264 0.47114003 -4.6181355 2.7764447 -2.5209067 -3.087469
3.152361 -0.6109645 -0.66967297 -0.46466064 -0.7863594 -0.8023168 0.21814273 -0.62765735
-0.48700294 0.5560005 -0.40646276 -0.817466 0.62544495 -0.8665832 0.6824526 -3.347599
-11.028678 -6.3045006 0.90366447 13.260096 -15.682065 0.38180757 11.651 -8.566667
3.723215 -2.3576663 -6.4684978 -1.2621285 -2.3140461 -4.2757335 -0.5412898 1.0363677
3.5335495 -4.099513 1.7468824 1.4399577 -4.579736 0.8651789 1.4161402 -4.754402
0.5876757 1.1910192 -2.4411542 -0.95405614 -0.16517709 1.1235522 -1.356238 0.62084496
-0.76100844 -0.280353 0.85911727 0.6881908 -0.51549923 -0.8625937 -0.5052994 -5.350253
0.7040778 -0.7828564 10.10286 -7.6130843 0.58514184 9.906099 -6.427917 -0.10491774
0.10982798 -1.0260463 -0.5774717 -0.96773225 -0.98411125 -0.67724156 -0.4600894 -0.3721623
0.12602973 -0.63643545 0.57849395 -0.7288572 -0.39719483 -0.75714266 -0.2332129 -0.5594429
-0.64576495 0.6068065 -0.5104589 -0.517221 -0.42635295 0.76091206 -0.4667264 -0.5735376
-0.47699857 -0.7029243 -0.819291 0.7806358 0.5326796 1.937982 2.6844685 -4.6066175
-5.3368545 -5.6245985 5.449965 3.252483 3.869352 -0.27961922 -5.270552 1.5678229
5.5287743

linear1.bias f4 [13]
00000000: be6f 86be e3de 31bf 1edc 61bf a3a5 6e3f
00000010: 7a20 2e3f 5f6d 00bf ac01 36c0 6d28 34c0
00000020: 8876 e33e ee8c 37bf fd0c 26bf 5c60 f9be
00000030: 880d 1640
-0.26257128 -0.69480723 -0.882265 0.9322149 0.68018305 -0.5016689 -2.843852 -2.8149674
0.4442637 -0.71699417 -0.6486357 -0.4870633 2.344576

linear2.weight f4 [8, 13]
00000000: a222 3e3f 5b0c c13e 1d05 3d3f fc92 98bf
00000010: 681a 6e40 c386 da3e 36eb 18c0 b9c9 3ebf
00000020: 4845 9fbf b095 90c0 89fc 803e 01de 56be
00000030: 1d3e 4a40 cc47 d1be 85ec 48bf ae39 f3be
00000040: c37d 68bf ce01 5c40 ac23 45bf 20fb 4bc0
00000050: 2c3f 8ebf eebc 52bf aa36 a7c0 3486 1bbf
00000060: 10c8 05bf 0538 883e 5132 ddbe e491 20bf
00000070: 75be b2be df69 65bf ac75 1340 32cf 1ebf
00000080: 4df2 dbbf 2201 62bf b1c2 c9bf 81d3 4ec0
00000090: fb6d 4cbf 75a3 acbe b68e 14bd e343 8d3e
000000a0: dace d03e 3e7e 913e 5265 a8bf c503 7b40
000000b0: e0b0 3f3f a855 1ac0 b3cb 39bf 2506 79bf
000000c0: 077d 96c0 1f25 6f3e 5d65 fabe ae3a 5540
000000d0: d838 5dbe c2c1 aebe 3a7b 2dbf 53ce 57bf
000000e0: 19be 4240 a631 10bf 4928 4dc0 2bb2 91bf
000000f0: af77 67bf 4f44 8cc0 7f60 08bf 6bbb 55bf
00000100: c66c ed3e e800 153f 016e 4e3f 69ee 473f
00000110: 7fef fabf 1969 5540 1b62 5c3f ef9a 09c0
00000120: 18fe 82bf 2f04 a9bf 1130 7bc0 ecb0 933e
00000130: f6bc 5ebe c9cb 0b40 1152 10bf 3640 e1be
00000140: bf44 febe a632 ccbf ffef 443f 51ca c6be
00000150: 3cd8 1dbf d4b3 4ebf 3c14 afbf dbdb 0bbf
00000160: 2445 78be 7846 2c3f e150 e4be a3f7 1dbf
00000170: a2b9 30bf 42d9 45bf 0230 75bf 725a 5040
00000180: 9af9 bebe 7e0a 53c0 3db0 50bf e495 8dbf
00000190: d61c 8dc0 5a2a 22bf 40f1 29bf b815 773f
0.74271595 0.3770474 0.7383593 -1.1919856 3.7203617 0.4268094 -2.3893561 -0.74526554
-1.2443018 -4.5182724 0.2519267 -0.20983125 3.160041 -0.4087509 -0.784859 -0.47504944
-0.908169 3.4376101 -0.77007556 -3.1872025 -1.1113029 -0.82319534 -5.225423 -0.6075165
-0.52258396 0.2660524 -0.4320245 -0.6272261 -0.34910932 -0.8961467 2.3040571 -0.62034905
-1.7183319 -0.8828298 -1.576254 -3.2316592 -0.79855317 -0.33718458 -0.036268912 0.27590856
0.40782815 0.28416628 -1.315592 3.922105 0.74879265 -2.411478 -0.72576445 -0.97275
-4.702762 0.23354004 -0.4890546 3.3317065 -0.21603715 -0.341322 -0.67766154 -0.842992
3.0428526 -0.5632576 -3.2055838 -1.1382498 -0.90417 -4.3833385 -0.5327224 -0.834891
0.4637205 0.5820451 0.806366 0.7809816 -1.9604338 3.3345397 0.860872 -2.1500814
-1.0233793 -1.3204402 -3.9248087 0.28845918 -0.2175177 2.184313 -0.56375223 -0.43994302
-0.49661824 -1.5952957 0.76928705 -0.3882623 -0.6165807 -0.80743146 -1.367805 -0.5463235
-0.24245125 0.67295027 -0.44592956 -0.6170599 -0.69033253 -0.77284634 -0.9577638 3.2555203
-0.37299806 -3.2975154 -0.8151892 -1.1061368 -4.40977 -0.63345873 -0.66383743 0.96517515

linear2.bias f4 [8]
00000000: e9f9 04bf 48a1 a0bf 1200 acbf c246 63bf
00000010: 4152 77bf f086 a5bf dfc7 31bf 3642 82bf
-0.5194383 -1.2549219 -1.3437521 -0.8877984 -0.96609885 -1.2931805 -0.69445604 -1.0176456

linear3.weight f4 [2, 8]
00000000: 350f 923f a1fd 713f b87a e53d 3ce8 b23f
00000010: 5cb6 213f e14b a43f 291f f43c a667 593f
00000020: 97e6 86bf c898 36bf c9c3 d5be 663a bebf
00000030: 6c07 28bf f73d 85bf 2207 9f3d ae34 4cbf
1.1410891 0.9452763 0.11205047 1.3977122 0.63168883 1.2835656 0.029800015 0.8492378
-1.053912 -0.71326876 -0.41750935 -1.4861572 -0.65636325 -1.0409535 0.07765032 -0.7976788

linear3.bias f4 [2]
00000000: f2c4 fcbf 80f4 f43f
-1.9747603 1.9137115
